Main software/models/classifier_quantized.onnx (onnx, 62474 bytes, 6 tensors)

intercepts f4 [1, 128]
0	0xbe18386c	-0.14865273
1	0xbdb121d0	-0.08649027
2	0x3e417c62	0.18895105
3	0x3eaf7bd1	0.34274152
4	0x3e300283	0.17188458
5	0xbe44cf78	-0.19219768
6	0x3cb58c57	0.022161646
7	0xbcaad8f7	-0.02085541
8	0xbe08b550	-0.13350415
9	0xbe1850dd	-0.14874597
10	0x3d0098aa	0.03139559
11	0xbe4df3b9	-0.20112504
12	0x3d6722ec	0.05642979
13	0xbe6f864e	-0.23391077
14	0x3e0722c4	0.13196856
15	0xbdcd2409	-0.10016639
16	0xbddf8f5f	-0.10916018
17	0xbdeb0268	-0.11475068
18	0xbdd4b3de	-0.103858694
19	0xbcf756b1	-0.030192705
20	0xbc25244d	-0.010079456
21	0xbd4d26a3	-0.050085675
22	0x3dbd7ac0	0.09251928
23	0x3e33572a	0.17513719
24	0xbda42ee9	-0.0801676
25	0xbdfa185f	-0.1221168
26	0xbd83876b	-0.06422313
27	0xbd451649	-0.048116956
28	0xbe8cce60	-0.27501202
29	0x3bf40fb1	0.0074481596
30	0xbd24c5f2	-0.040227838
31	0xbdad44bb	-0.08460375
32	0x3e5d3696	0.21602854
33	0x3def6866	0.11689834
34	0xbe4e6427	-0.20155393
35	0xbdc78477	-0.097420625
36	0xbe116e4d	-0.14202233
37	0xbd7c11bd	-0.061540354
38	0x3d67c506	0.05658438
39	0xbdead300	-0.11466026
40	0xbd94ce22	-0.07265879
41	0xbd8555e6	-0.065105245
42	0x3e20fd99	0.1572174
43	0x3e5ed11c	0.21759456
44	0x3dd10969	0.10206873
45	0xbe03e12b	-0.12878864
46	0x3e1a36dd	0.15059991
47	0xbddab22b	-0.10678514
48	0xbcb4802a	-0.02203377
49	0xbe50c4e3	-0.20387606
50	0x3c55e2f9	0.013054603
51	0xbd76d7c6	-0.06026437
52	0x3e4d2d5e	0.20036837
53	0xbe54dc34	-0.20787126
54	0xbc0502c9	-0.00811834
55	0xbde30065	-0.110840596
56	0xbf012869	-0.50452286
57	0xbed80497	-0.42191002
58	0xbdbd3c43	-0.0924001
59	0x3e4f4816	0.20242342
60	0x3d843be3	0.06456735
61	0x3c9c6824	0.019092627
62	0x3daddbb5	0.084891714
63	0x3d998d1b	0.07497617
64	0xbe75dc58	-0.24009836
65	0x3e08e8a7	0.1337
66	0xbe929b17	-0.2863395
67	0xbd93b863	-0.07212903
68	0x3da15d80	0.07879162
69	0x3c561166	0.013065672
70	0xbdfec4f0	-0.124399066
71	0xbee75a7d	-0.45186225
72	0x3c354ffe	0.011066435
73	0x3d138a6c	0.03602068
74	0x3dc9aaae	0.09847008
75	0x3dfc3c34	0.1231617
76	0xbe227c28	-0.15867674
77	0xbd441058	-0.04786715
78	0x3ddd9656	0.1081969
79	0x3dad1009	0.08450324
80	0x3e1cebe4	0.1532436
81	0x3d98b294	0.07455936
82	0xbdd9aab4	-0.10628262
83	0xbe6878ce	-0.22702333
84	0x3e4076eb	0.18795364
85	0x3e532805	0.20620735
86	0xbdebd23e	-0.1151471
87	0x3d9d74f7	0.07688325
88	0x3d0f047c	0.034916386
89	0xbe16b50f	-0.14717506
90	0x3da4beed	0.08044229
91	0xbe42c7db	-0.19021551
92	0x3eabe06d	0.3356966
93	0xbd9ff67f	-0.07810687
94	0xbbf53be4	-0.007483946
95	0x3e0ccd05	0.13750084
96	0xbe83e1f2	-0.2575832
97	0x3d969fe0	0.073547125
98	0xbe0eab2b	-0.13932483
99	0xbd5ed29e	-0.05440008
100	0xbe32d6b6	-0.17464718
101	0xbe62b788	-0.22140324
102	0x3cabcd8f	0.020972041
103	0x3d539dc7	0.05166414
104	0x3dc1380d	0.09434519
105	0x3e17f7de	0.14840648
106	0xbe14bf6d	-0.14526148
107	0x3cb079fb	0.02154254
108	0x3e9424c5	0.28934303
109	0x3cf8fb0a	0.030393142
110	0xbdb6e1e2	-0.089298025
111	0xbe096dad	-0.13420744
112	0xbe426f01	-0.18987657
113	0xbe27aee3	-0.16375308
114	0x3d718b0c	0.058970496
115	0xbc8317cf	-0.016002564
116	0xbc81b154	-0.015831627
117	0xbe55ae24	-0.2086721
118	0xbda15b49	-0.078787394
119	0xbca31b9e	-0.01991063
120	0xbd18514b	-0.037186902
121	0xbceb78b1	-0.028744074
122	0xbcae89dc	-0.02130597
123	0xbd00f660	-0.03148496
124	0xbe75175d	-0.23934694
125	0xbe54c3f1	-0.2077787
126	0x3dce86fd	0.10084341
127	0xbe48c00d	-0.19604512

intercepts1 f4 [1, 64]
0	0x3c9b2607	0.018939031
1	0x3e620ea2	0.22075894
2	0x3e73e00e	0.23815939
3	0xbe39da3e	-0.18149659
4	0x3e0cb53a	0.13741007
5	0x3d341774	0.04396768
6	0x3a6dcd7c	0.0009071452
7	0x3e868072	0.2626987
8	0x3e82e445	0.2556478
9	0x3ed52670	0.41630888
10	0x3eaa43a4	0.3325473
11	0x3e04a656	0.12954077
12	0xbd3cc563	-0.04608668
13	0x3e817138	0.25281692
14	0x3c0ad9dd	0.008474794
15	0xbe88e3a5	-0.2673618
16	0x3e7f62e7	0.24940072
17	0x3dbc2940	0.09187555
18	0x3e989143	0.29798326
19	0x3e0e3f1f	0.13891266
20	0x3db88575	0.0900983
21	0x3dc81d0b	0.097711645
22	0xbd9a5948	-0.0753656
23	0xbe85e66d	-0.26152363
24	0xbdeb164e	-0.11478864
25	0x3c0dfea1	0.008666665
26	0x3e57ecbb	0.210864
27	0x3dae2da5	0.085048
28	0xbca92dd0	-0.020651728
29	0xbe299b5b	-0.1656317
30	0x3e4be0c4	0.1990996
31	0x3e94cf47	0.2906439
32	0x3dcd023d	0.100101925
33	0xbe16e0c6	-0.14734182
34	0x3ca5dd5a	0.02024715
35	0x3e2130da	0.15741292
36	0x3d468a68	0.04847184
37	0xbe0744a3	-0.13209777
38	0x3ec7050b	0.38871035
39	0x3e3ad172	0.1824396
40	0xbe2cef26	-0.16888103
41	0xbdb7b367	-0.08969765
42	0x3ea7b2c9	0.3275359
43	0xbe879f6c	-0.26488817
44	0x3e4bd7f2	0.19906595
45	0x3e858c87	0.26083776
46	0x3ebd9222	0.37025553
47	0x3e67b07f	0.22625922
48	0xbe061495	-0.13093789
49	0x3e1d0d2b	0.15337054
50	0x3df050d2	0.11734165
51	0x3d7611e2	0.060075648
52	0x3ea113a5	0.314603
53	0x3e029b6e	0.12754604
54	0x3d23111c	0.03981124
55	0x3e210d5e	0.15727755
56	0x3ccef8ae	0.025265064
57	0x3e3071d8	0.17230928
58	0x3e02abeb	0.12760894
59	0xbdf87f9b	-0.12133714
60	0x3db83973	0.089953326
61	0x3d53ef95	0.051742155
62	0xbe2328f7	-0.15933596
63	0xbde547cc	-0.11195335

intercepts2 f4 [1, 7]
0	0xbee66943	-0.45002183
1	0xbea0332b	-0.31289038
2	0x3e59d83a	0.2127389
3	0xbe35dc08	-0.17759717
4	0x3eca38eb	0.3949655
5	0x3e1e437b	0.1545543
6	0xbdd5a1c7	-0.10431247

coefficient_quantized i1 [384, 128]
0	0xe4	-28
1	0xd5	-43
2	0xeb	-21
3	0x0c	12
4	0xdd	-35
5	0xda	-38
6	0xf4	-12
7	0xd9	-39
8	0x00	0
9	0xef	-17
10	0xe6	-26
11	0x07	7
12	0xd0	-48
13	0x22	34
14	0xd9	-39
15	0x29	41
16	0xbc	-68
17	0xe1	-31
18	0xec	-20
19	0x02	2
20	0x18	24
21	0xed	-19
22	0xff	-1
23	0xeb	-21
24	0x15	21
25	0x16	22
26	0x2f	47
27	0x19	25
28	0x0c	12
29	0xe8	-24
30	0xec	-20
31	0x18	24
32	0x24	36
33	0xf0	-16
34	0x15	21
35	0x2e	46
36	0xf4	-12
37	0xeb	-21
38	0x32	50
39	0xeb	-21
40	0x06	6
41	0x15	21
42	0xfd	-3
43	0xfe	-2
44	0x18	24
45	0xf5	-11
46	0x10	16
47	0x16	22
48	0x07	7
49	0xf0	-16
50	0x36	54
51	0x1e	30
52	0xf4	-12
53	0x0e	14
54	0x28	40
55	0x1f	31
56	0x17	23
57	0x0d	13
58	0xe9	-23
59	0xfd	-3
60	0xe4	-28
61	0x0b	11
62	0x00	0
63	0x04	4
64	0xbf	-65
65	0xd8	-40
66	0x05	5
67	0x0d	13
68	0x32	50
69	0x07	7
70	0xf7	-9
71	0x14	20
72	0xe1	-31
73	0xdb	-37
74	0xfe	-2
75	0xf7	-9
76	0x06	6
77	0xfb	-5
78	0xe3	-29
79	0xe3	-29
80	0x2e	46
81	0xf8	-8
82	0xdf	-33
83	0xe6	-26
84	0xe6	-26
85	0xa8	-88
86	0x05	5
87	0xfd	-3
88	0xfa	-6
89	0xcb	-53
90	0xf3	-13
91	0xe2	-30
92	0xca	-54
93	0x10	16
94	0x2f	47
95	0x15	21
96	0xff	-1
97	0xf9	-7
98	0xd3	-45
99	0xff	-1
100	0xe2	-30
101	0xde	-34
102	0x01	1
103	0x0b	11
104	0x33	51
105	0xf3	-13
106	0x1c	28
107	0xf9	-7
108	0x37	55
109	0xff	-1
110	0xea	-22
111	0x04	4
112	0x23	35
113	0xd1	-47
114	0x02	2
115	0x0a	10
116	0x15	21
117	0x19	25
118	0xe9	-23
119	0x19	25
120	0x19	25
121	0x07	7
122	0x00	0
123	0xfa	-6
124	0x27	39
125	0xfd	-3
126	0xf9	-7
127	0xe1	-31
128	0x11	17
129	0x1e	30
130	0x0b	11
131	0xeb	-21
132	0xd8	-40
133	0x3a	58
134	0x32	50
135	0xa8	-88
136	0x00	0
137	0xf8	-8
138	0xe2	-30
139	0xff	-1
140	0xe7	-25
141	0x92	-110
142	0xed	-19
143	0x29	41
144	0x18	24
145	0xe0	-32
146	0x1e	30
147	0xc0	-64
148	0xdd	-35
149	0xdb	-37
150	0xf5	-11
151	0x1b	27
152	0x0e	14
153	0xfa	-6
154	0x05	5
155	0x33	51
156	0x0d	13
157	0xf8	-8
158	0xf1	-15
159	0xd2	-46
160	0xd8	-40
161	0xef	-17
162	0x11	17
163	0x2d	45
164	0xe6	-26
165	0x25	37
166	0x1b	27
167	0x03	3
168	0x26	38
169	0xe8	-24
170	0x1e	30
171	0xff	-1
172	0x0c	12
173	0xe0	-32
174	0x04	4
175	0x13	19
176	0x13	19
177	0x07	7
178	0xdf	-33
179	0xe4	-28
180	0x00	0
181	0xeb	-21
182	0xed	-19
183	0x53	83
184	0x14	20
185	0x04	4
186	0xe7	-25
187	0xe2	-30
188	0xe4	-28
189	0x00	0
190	0x07	7
191	0xe4	-28
192	0xed	-19
193	0x04	4
194	0xe0	-32
195	0xe2	-30
196	0x00	0
197	0xd8	-40
198	0xfd	-3
199	0xe3	-29
200	0x10	16
201	0xf6	-10
202	0xf6	-10
203	0xf3	-13
204	0x0b	11
205	0x2e	46
206	0x2b	43
207	0x2a	42
208	0xf2	-14
209	0x03	3
210	0x07	7
211	0xd2	-46
212	0x15	21
213	0xc7	-57
214	0xf2	-14
215	0xfc	-4
216	0x02	2
217	0xee	-18
218	0x25	37
219	0x1b	27
220	0xee	-18
221	0xfa	-6
222	0xff	-1
223	0xe7	-25
224	0xf1	-15
225	0x03	3
226	0xcc	-52
227	0xe3	-29
228	0x2a	42
229	0x1f	31
230	0xe3	-29
231	0xff	-1
232	0xec	-20
233	0xde	-34
234	0xcf	-49
235	0xd7	-41
236	0xde	-34
237	0xe2	-30
238	0x02	2
239	0x14	20
240	0xf3	-13
241	0x0b	11
242	0x13	19
243	0xf2	-14
244	0xee	-18
245	0xf2	-14
246	0x0e	14
247	0x29	41
248	0xd3	-45
249	0xf3	-13
250	0xe8	-24
251	0x0d	13
252	0xfd	-3
253	0x03	3
254	0xea	-22
255	0x32	50

coefficient1_quantized i1 [128, 64]
0	0xd8	-40
1	0xed	-19
2	0x00	0
3	0xd9	-39
4	0xf1	-15
5	0x01	1
6	0x06	6
7	0x05	5
8	0x27	39
9	0xff	-1
10	0xf5	-11
11	0x07	7
12	0x06	6
13	0xfb	-5
14	0x1f	31
15	0xe6	-26
16	0x03	3
17	0xda	-38
18	0xf5	-11
19	0x07	7
20	0x00	0
21	0x24	36
22	0x00	0
23	0x2d	45
24	0x00	0
25	0xf7	-9
26	0x17	23
27	0x0e	14
28	0x26	38
29	0x00	0
30	0x13	19
31	0xea	-22
32	0x08	8
33	0xfc	-4
34	0xf3	-13
35	0x1d	29
36	0x17	23
37	0x00	0
38	0xe8	-24
39	0x0c	12
40	0x00	0
41	0x22	34
42	0x05	5
43	0x05	5
44	0x23	35
45	0x11	17
46	0xe9	-23
47	0x0e	14
48	0x00	0
49	0xf4	-12
50	0xec	-20
51	0xf6	-10
52	0xfd	-3
53	0x02	2
54	0x03	3
55	0xe5	-27
56	0xec	-20
57	0xea	-22
58	0xff	-1
59	0x11	17
60	0x14	20
61	0x0c	12
62	0x00	0
63	0x00	0
64	0x03	3
65	0x04	4
66	0x06	6
67	0xe5	-27
68	0xf9	-7
69	0x0b	11
70	0xf0	-16
71	0xda	-38
72	0xef	-17
73	0xf1	-15
74	0xf8	-8
75	0xf0	-16
76	0x15	21
77	0xd6	-42
78	0xfc	-4
79	0xea	-22
80	0xfa	-6
81	0xd0	-48
82	0xfa	-6
83	0xef	-17
84	0x05	5
85	0xef	-17
86	0x00	0
87	0x0c	12
88	0x00	0
89	0x14	20
90	0xe1	-31
91	0x07	7
92	0xed	-19
93	0x00	0
94	0x0b	11
95	0x31	49
96	0xee	-18
97	0x0b	11
98	0xfb	-5
99	0x17	23
100	0xde	-34
101	0x00	0
102	0xc3	-61
103	0x08	8
104	0x00	0
105	0x1c	28
106	0x01	1
107	0x0c	12
108	0xf7	-9
109	0x0c	12
110	0xf8	-8
111	0xfd	-3
112	0x00	0
113	0x0c	12
114	0xf5	-11
115	0x13	19
116	0xc1	-63
117	0xf9	-7
118	0xf3	-13
119	0xfd	-3
120	0x2f	47
121	0xe9	-23
122	0xff	-1
123	0xfe	-2
124	0x1d	29
125	0xe8	-24
126	0x00	0
127	0x00	0
128	0xe9	-23
129	0xe3	-29
130	0xe8	-24
131	0x0e	14
132	0xe9	-23
133	0x04	4
134	0x04	4
135	0x0a	10
136	0x11	17
137	0x02	2
138	0x0d	13
139	0xf3	-13
140	0x30	48
141	0xf3	-13
142	0x0a	10
143	0xec	-20
144	0x23	35
145	0xe7	-25
146	0xf8	-8
147	0xea	-22
148	0x13	19
149	0xfc	-4
150	0x00	0
151	0xfc	-4
152	0x00	0
153	0x01	1
154	0xf6	-10
155	0xfe	-2
156	0xdd	-35
157	0x00	0
158	0x11	17
159	0x15	21
160	0xf4	-12
161	0xf2	-14
162	0x12	18
163	0x0c	12
164	0x23	35
165	0x00	0
166	0xe1	-31
167	0xee	-18
168	0x00	0
169	0xf8	-8
170	0xf9	-7
171	0xd4	-44
172	0xfd	-3
173	0xf8	-8
174	0x02	2
175	0x09	9
176	0x00	0
177	0x09	9
178	0xe4	-28
179	0xf4	-12
180	0xfa	-6
181	0xf2	-14
182	0x22	34
183	0xf8	-8
184	0xe0	-32
185	0xfe	-2
186	0xea	-22
187	0xf6	-10
188	0x1c	28
189	0x2a	42
190	0x00	0
191	0x00	0
192	0x24	36
193	0x0e	14
194	0x04	4
195	0x05	5
196	0xe0	-32
197	0x19	25
198	0x30	48
199	0xed	-19
200	0x00	0
201	0x0f	15
202	0x00	0
203	0x0a	10
204	0x08	8
205	0x09	9
206	0x11	17
207	0x1b	27
208	0xbf	-65
209	0x2e	46
210	0x10	16
211	0x1a	26
212	0x2e	46
213	0x08	8
214	0x00	0
215	0x0a	10
216	0x00	0
217	0x04	4
218	0xf6	-10
219	0x14	20
220	0x08	8
221	0x00	0
222	0x33	51
223	0x12	18
224	0x15	21
225	0x1a	26
226	0x0e	14
227	0x00	0
228	0x04	4
229	0x00	0
230	0x11	17
231	0xea	-22
232	0x00	0
233	0x0b	11
234	0x12	18
235	0x06	6
236	0xfd	-3
237	0xfe	-2
238	0xef	-17
239	0x28	40
240	0x00	0
241	0xe9	-23
242	0xf3	-13
243	0xe5	-27
244	0xf7	-9
245	0x03	3
246	0x0a	10
247	0xcc	-52
248	0x0c	12
249	0x2c	44
250	0x0e	14
251	0x12	18
252	0x05	5
253	0x2d	45
254	0x00	0
255	0x00	0

coefficient2_quantized i1 [64, 7]
0	0x21	33
1	0x1b	27
2	0x19	25
3	0xa5	-91
4	0xf3	-13
5	0xf2	-14
6	0x0c	12
7	0x33	51
8	0x0d	13
9	0xbe	-66
10	0xdc	-36
11	0xee	-18
12	0xe8	-24
13	0x06	6
14	0xdf	-33
15	0x08	8
16	0x26	38
17	0x25	37
18	0xc7	-57
19	0xf8	-8
20	0x13	19
21	0x1a	26
22	0x0b	11
23	0xfb	-5
24	0x14	20
25	0x1f	31
26	0xbe	-66
27	0x21	33
28	0x1a	26
29	0xd4	-44
30	0xf9	-7
31	0x11	17
32	0xf4	-12
33	0xe8	-24
34	0x28	40
35	0x05	5
36	0x0a	10
37	0x81	-127
38	0xfd	-3
39	0x1e	30
40	0xef	-17
41	0xf6	-10
42	0xc9	-55
43	0x0b	11
44	0x65	101
45	0xf0	-16
46	0xcf	-49
47	0x00	0
48	0xab	-85
49	0x07	7
50	0x28	40
51	0x8d	-115
52	0xd7	-41
53	0x01	1
54	0xad	-83
55	0x0d	13
56	0xf4	-12
57	0xb3	-77
58	0xcb	-53
59	0x26	38
60	0x10	16
61	0x08	8
62	0xe2	-30
63	0x1b	27
64	0xbe	-66
65	0x08	8
66	0xd8	-40
67	0x23	35
68	0x20	32
69	0x0c	12
70	0xc9	-55
71	0x17	23
72	0x20	32
73	0x03	3
74	0x21	33
75	0x2f	47
76	0xc7	-57
77	0x1f	31
78	0x00	0
79	0xb7	-73
80	0x07	7
81	0xed	-19
82	0x21	33
83	0x14	20
84	0x11	17
85	0x1f	31
86	0x0e	14
87	0xd7	-41
88	0xd4	-44
89	0x11	17
90	0x16	22
91	0x25	37
92	0x8c	-116
93	0xfd	-3
94	0x1d	29
95	0x03	3
96	0x1c	28
97	0xec	-20
98	0xdc	-36
99	0xc0	-64
100	0xfb	-5
101	0x0d	13
102	0x24	36
103	0xf1	-15
104	0xf1	-15
105	0x23	35
106	0x0a	10
107	0xa0	-96
108	0xea	-22
109	0x24	36
110	0xea	-22
111	0x1e	30
112	0x05	5
113	0x13	19
114	0xe3	-29
115	0x33	51
116	0x10	16
117	0xe7	-25
118	0x29	41
119	0x25	37
120	0xb7	-73
121	0xc4	-60
122	0x00	0
123	0xda	-38
124	0x1f	31
125	0x0d	13
126	0xf7	-9
127	0xa7	-89
128	0x36	54
129	0x2a	42
130	0xfe	-2
131	0x15	21
132	0xfe	-2
133	0x08	8
134	0xa7	-89
135	0x1c	28
136	0x14	20
137	0x14	20
138	0x09	9
139	0x1b	27
140	0x0c	12
141	0x02	2
142	0x2a	42
143	0xbb	-69
144	0xe9	-23
145	0x2c	44
146	0xeb	-21
147	0xa2	-94
148	0x32	50
149	0x46	70
150	0x20	32
151	0x1b	27
152	0xc6	-58
153	0xe4	-28
154	0x00	0
155	0x00	0
156	0x00	0
157	0x00	0
158	0x00	0
159	0x00	0
160	0x00	0
161	0x20	32
162	0x0c	12
163	0xcc	-52
164	0x03	3
165	0xda	-38
166	0x20	32
167	0xc4	-60
168	0x00	0
169	0x00	0
170	0x00	0
171	0x00	0
172	0x00	0
173	0x00	0
174	0x00	0
175	0xbd	-67
176	0x07	7
177	0x27	39
178	0x03	3
179	0xef	-17
180	0x1d	29
181	0xdb	-37
182	0x26	38
183	0x24	36
184	0x1a	26
185	0x0a	10
186	0xd5	-43
187	0xf1	-15
188	0xdf	-33
189	0x17	23
190	0x07	7
191	0xfe	-2
192	0xc4	-60
193	0x24	36
194	0xee	-18
195	0xe3	-29
196	0xe6	-26
197	0xcd	-51
198	0xcb	-53
199	0x14	20
200	0x0e	14
201	0x04	4
202	0x17	23
203	0x00	0
204	0x00	0
205	0x00	0
206	0x00	0
207	0x00	0
208	0x00	0
209	0x00	0
210	0x18	24
211	0x25	37
212	0xc1	-63
213	0x0a	10
214	0x0d	13
215	0xbd	-67
216	0x04	4
217	0xbb	-69
218	0xf0	-16
219	0x1a	26
220	0xfb	-5
221	0x02	2
222	0x19	25
223	0x1b	27
224	0xf5	-11
225	0x29	41
226	0xc5	-59
227	0x08	8
228	0x19	25
229	0xe7	-25
230	0x16	22
231	0x03	3
232	0x1d	29
233	0x13	19
234	0x11	17
235	0xfc	-4
236	0xd1	-47
237	0xd2	-46
238	0xdd	-35
239	0x23	35
240	0xd6	-42
241	0x3e	62
242	0x21	33
243	0x11	17
244	0x1d	29
245	0xfe	-2
246	0x22	34
247	0x0e	14
248	0xbd	-67
249	0x1b	27
250	0xd7	-41
251	0xf6	-10
252	0xd6	-42
253	0x03	3
254	0xf6	-10
255	0x12	18
