Main software/models/classifier.onnx (onnx, 233281 bytes, 6 tensors)

coefficient f4 [384, 128]
000000 8d 1e 9e be 42 55 f6 be 7b e4 6e be ab 2f 05 3e
       -0.30882683 -0.48111922 -0.23329346 0.13006465
000010 f9 be c8 be 41 06 da be 88 85 08 be f6 0f dd be
       -0.392082 -0.42582896 -0.13332188 -0.4317624
000020 5f b6 08 00 29 1c 3d be 63 cb 96 be 24 b4 a2 3d
       8.00106e-40 -0.18467773 -0.29452047 0.07944515
000030 30 58 0a bf e5 ae c0 3e 62 0d e1 be d2 f6 e8 3e
       -0.54040813 0.37633434 -0.43955523 0.4550081
000040 7a e1 41 bf b7 52 b2 be 35 fe 60 be 02 71 9e 3c
       -0.75734675 -0.3482873 -0.21971972 0.019340996
000050 e0 d1 89 3e 8d 1b 58 be 9c d2 45 bc ce 95 6b be
       0.26917934 -0.2110426 -0.012074139 -0.23006365
000060 59 8b 70 3e e2 8b 77 3e 4b b6 06 3f bf e8 8d 3e
       0.23490657 0.24174455 0.52621907 0.27716634
000070 14 1c 09 3e 7a e2 86 be c5 39 64 be f7 84 88 3e
       0.13389617 -0.26344663 -0.22287662 0.26663944
000080 97 84 cd 3e 32 cd 38 be c8 33 6e 3e 1d 63 04 3f
       0.4014022 -0.18047026 0.2326194 0.51713735
000090 d4 26 04 be db 03 70 be d2 4a 0e 3f a8 04 6b be
       -0.12905437 -0.2343897 0.55582917 -0.22950995
0000a0 a9 89 93 3d 48 4c 75 3e 14 f6 01 bd ff ed e3 bc
       0.07203991 0.2395488 -0.03172882 -0.027823446
0000b0 ef cd 89 3e d9 75 f8 bd b3 eb 39 3e cd 40 7c 3e
       0.26914927 -0.12131853 0.18156318 0.24634095
0000c0 ad 75 99 3d 50 b2 33 be 4f bd 1b 3f 67 34 ac 3e
       0.07493148 -0.1754849 0.60835737 0.3363373
0000d0 89 d2 07 be 22 e7 1d 3e 63 22 e7 3e 51 6c b2 3e
       -0.13263907 0.15420201 0.45143422 0.34848264
0000e0 b5 cc 82 3e 3a 5e 16 3e 72 18 83 be 15 7a e6 bc
       0.25546804 0.14684382 -0.25604588 -0.028134385
0000f0 d6 77 a1 be e8 75 02 3e 69 22 31 3b 08 e1 20 3d
       -0.3153674 0.1274029 0.0027028567 0.039277107
000100 da cd 3a bf e5 5a e5 be 17 d0 53 3d 73 b4 16 3e
       -0.72970355 -0.4479591 0.05171212 0.14717273
000110 4e 56 0e 3f f9 80 a2 3d 7e 08 d0 bd fe ac 64 3e
       0.5560044 0.07934756 -0.1015787 0.22331616
000120 9b 5e b0 be 06 8d d6 be 2f 1b bc bc 16 03 d8 bd
       -0.34447178 -0.41904467 -0.02296218 -0.105474636
000130 db 5f 8f 3d 24 17 6b bd 87 7c a5 be 3e c3 a5 be
       0.07000705 -0.057395115 -0.3232157 -0.3237552
000140 98 d2 02 3f 4b 74 bb bd 36 64 ba be ba ec 92 be
       0.5110259 -0.091530405 -0.3640458 -0.28696233
000150 2c 86 93 be e3 54 7b bf b7 3c 5d 3d 23 8f 18 bd
       -0.28813303 -0.981764 0.05401298 -0.03724588
000160 2e 76 84 bd 62 06 19 bf db b0 11 be 98 89 ad be
       -0.064678535 -0.59775364 -0.14227621 -0.33894038
000170 9e a3 19 bf a8 90 33 3e 9c 37 06 3f 47 75 6f 3e
       -0.60015285 0.1753565 0.52428603 0.23384582
000180 a8 d4 85 bc 36 36 a6 bd 97 e0 01 bf 1a 5a 3d bc
       -0.016336754 -0.08115809 -0.5073332 -0.011557126
000190 27 cf ad be 5e 05 c5 be 4d 3e 71 3c 5b 0b fc 3d
       -0.33947107 -0.38480657 0.014724326 0.123068534
0001a0 15 bf 10 3f b2 65 19 be 48 1f a3 3e 6b 6b 9b bd
       0.5654157 -0.149802 0.31859803 -0.07588848
0001b0 54 d1 1e 3f a5 c6 32 bc 46 58 80 be 2e 8d 20 3d
       0.6203816 -0.010911618 -0.25067347 0.03919714
0001c0 c4 63 ca 3e 49 00 06 bf 5c 7d 97 3c 7d 3d da 3d
       0.3952924 -0.52344185 0.018492393 0.10656259
0001d0 f0 5f 6e 3e 3d ea 90 3e c6 9e 81 be a4 0d 8e 3e
       0.23278785 0.2830371 -0.25316447 0.27744782
0001e0 23 e5 91 3e 80 18 98 3d 2b 4c 98 bb 6d 93 89 bd
       0.2849513 0.07426548 -0.004647752 -0.06717572
0001f0 a6 60 dd 3e b9 e7 01 bd 5a 29 a1 bd 61 fe b0 be
       0.432378 -0.03171513 -0.07869215 -0.34569076
000200 ae 43 3e 3e 77 24 aa 3e 03 41 03 3e 79 d9 74 be
       0.18580505 0.33230945 0.12817769 -0.23911084
000210 c3 c0 e2 be 5d 4b 27 3f 84 1a 0f 3f 1a 6b 7c bf
       -0.4428769 0.6534937 0.55899835 -0.98600924
000220 ac 1b 16 80 41 e5 ba bd 11 39 ad be ba 42 68 bc
       -2.030308e-39 -0.09125758 -0.338326 -0.014176065
000230 d8 78 8f be fe 25 9d bf c9 71 59 be c3 6f eb 3e
       -0.28021884 -1.2277219 -0.21234812 0.45983705
000240 5e 54 88 3e 8b 25 b7 be 3d c2 ab 3e b3 03 38 bf
       0.26626867 -0.3577083 0.3354663 -0.71880645
000250 de c6 c8 be 03 3b d3 be 28 d4 f5 bd 02 37 99 3e
       -0.39214224 -0.4125596 -0.12003356 0.2992478
000260 46 54 23 3e 2a 6e 83 bd 3f 4a 50 3d 67 9c 12 3f
       0.15950117 -0.064174965 0.050852057 0.572699
000270 19 53 1a 3e c9 3d c0 bd 6d 17 2e be 6b f5 03 bf
       0.15070762 -0.093867846 -0.17001124 -0.51546353
000280 04 41 e4 be 56 9e 46 be 74 ac 3e 3e d3 eb 01 3f
       -0.44580853 -0.19396338 0.18620473 0.50750464
000290 9f ff 94 be 94 3f d2 3e 18 d8 99 3e c5 76 1b 3d
       -0.29101273 0.4106413 0.3004768 0.037955064
0002a0 1d c3 d9 3e 36 b0 87 be 95 a2 aa 3e ec 72 cd bb
       0.42531672 -0.26501626 0.33327165 -0.0062698033
0002b0 b8 c1 03 3e ca 38 b7 be 88 f6 38 3d 13 7d 58 3e
       0.12866867 -0.35785514 0.045156986 0.21141462
0002c0 5d 48 5d 3e 62 3b a7 3d 14 81 bc be 2c 63 9f be
       0.21609636 0.08165623 -0.3681723 -0.3113035
0002d0 f4 31 bc ba 2c 54 6f be ed df 5d be e3 e2 6e 3f
       -0.0014358149 -0.23371953 -0.21667452 0.9331495
0002e0 3d 41 6a 3e 36 a1 34 3d bc 2a 90 be c1 2c a9 be
       0.22876449 0.044099055 -0.28157604 -0.33041957
0002f0 11 02 9e be bf 70 55 39 5b d2 95 3d 4f 33 9f be
       -0.30860952 0.00020355264 0.07315513 -0.31093833
000300 f4 e0 56 be 7e 98 4b 3d 96 96 b5 be 86 e6 a9 be
       -0.2098425 0.049705975 -0.3546645 -0.33183688
000310 e2 4d 61 3b e3 15 e7 be 96 5f 18 bd dc 24 a7 be
       0.0034378697 -0.45133886 -0.037200533 -0.3264531
000320 90 be 35 3e 1d a0 e1 bd 73 17 f0 bd 50 5b 15 be
       0.17748475 -0.11016867 -0.117232226 -0.14585614
000330 d4 43 fa 3d cd 68 03 3f 73 b8 f3 3e 0a 91 f0 3e
       0.122199684 0.5133179 0.4760166 0.46985656
000340 de ef 23 be 66 58 ff 3c 78 1f 97 3d d7 0e 04 bf
       -0.16009471 0.031170081 0.07379049 -0.51585144
000350 15 c7 73 3e c4 ac 22 bf 1a 3e 22 be 07 53 4d bd
       0.23806413 -0.6354487 -0.15844002 -0.05012801
000360 d9 ca e4 3c 21 c8 4d be 04 77 d1 3e 51 c3 9b 3e
       0.027928757 -0.20095874 0.40911114 0.30422452
000370 ed 73 49 be d7 e0 80 bd fc e1 7c bc 6e cf 8d be
       -0.19673128 -0.06292885 -0.015434738 -0.2769732
000380 e9 b8 29 be f1 27 f2 3c ed b0 15 bf ed 88 a5 be
       -0.16574444 0.029560061 -0.5847309 -0.3233103
000390 83 62 f2 3e 34 6a b1 3e f8 a3 a8 be af 68 ed bb
       0.47340783 0.3465134 -0.32937598 -0.0072451453
0003a0 b3 f9 5f be ac 15 c2 be 30 37 0b bf ae 16 ed be
       -0.21872596 -0.3790716 -0.54381084 -0.46306366
0003b0 97 0d c2 be dc cd a9 be 57 e6 c9 3c ac 70 69 3e
       -0.37900993 -0.3316487 0.024645967 0.22796887
0003c0 62 af 16 be 7d 7c 00 3e da 67 5b 3e 06 b2 25 be
       -0.1471534 0.12547489 0.21426335 -0.16181192
0003d0 00 2f 53 be 8c 7d 23 be 85 71 22 3e 03 20 e8 3e
       -0.20623398 -0.15965861 0.15863617 0.45336923
0003e0 67 11 00 bf 53 06 10 be 71 a8 87 be d0 da 18 3e
       -0.50026554 -0.14064912 -0.26495698 0.1492722
0003f0 fd 4a e9 bc dd 80 08 3d 43 df 7b be 5c ed 0f 3f
       -0.02847814 0.03332602 -0.24596886 0.56221557

intercepts f4 [1, 128]
000000 6c 38 18 be d0 21 b1 bd 62 7c 41 3e d1 7b af 3e
       -0.14865273 -0.08649027 0.18895105 0.34274152
000010 83 02 30 3e 78 cf 44 be 57 8c b5 3c f7 d8 aa bc
       0.17188458 -0.19219768 0.022161646 -0.02085541
000020 50 b5 08 be dd 50 18 be aa 98 00 3d b9 f3 4d be
       -0.13350415 -0.14874597 0.03139559 -0.20112504
000030 ec 22 67 3d 4e 86 6f be c4 22 07 3e 09 24 cd bd
       0.05642979 -0.23391077 0.13196856 -0.10016639
000040 5f 8f df bd 68 02 eb bd de b3 d4 bd b1 56 f7 bc
       -0.10916018 -0.11475068 -0.103858694 -0.030192705
000050 4d 24 25 bc a3 26 4d bd c0 7a bd 3d 2a 57 33 3e
       -0.010079456 -0.050085675 0.09251928 0.17513719
000060 e9 2e a4 bd 5f 18 fa bd 6b 87 83 bd 49 16 45 bd
       -0.0801676 -0.1221168 -0.06422313 -0.048116956
000070 60 ce 8c be b1 0f f4 3b f2 c5 24 bd bb 44 ad bd
       -0.27501202 0.0074481596 -0.040227838 -0.08460375
000080 96 36 5d 3e 66 68 ef 3d 27 64 4e be 77 84 c7 bd
       0.21602854 0.11689834 -0.20155393 -0.097420625
000090 4d 6e 11 be bd 11 7c bd 06 c5 67 3d 00 d3 ea bd
       -0.14202233 -0.061540354 0.05658438 -0.11466026
0000a0 22 ce 94 bd e6 55 85 bd 99 fd 20 3e 1c d1 5e 3e
       -0.07265879 -0.065105245 0.1572174 0.21759456
0000b0 69 09 d1 3d 2b e1 03 be dd 36 1a 3e 2b b2 da bd
       0.10206873 -0.12878864 0.15059991 -0.10678514
0000c0 2a 80 b4 bc e3 c4 50 be f9 e2 55 3c c6 d7 76 bd
       -0.02203377 -0.20387606 0.013054603 -0.06026437
0000d0 5e 2d 4d 3e 34 dc 54 be c9 02 05 bc 65 00 e3 bd
       0.20036837 -0.20787126 -0.00811834 -0.110840596
0000e0 69 28 01 bf 97 04 d8 be 43 3c bd bd 16 48 4f 3e
       -0.50452286 -0.42191002 -0.0924001 0.20242342
0000f0 e3 3b 84 3d 24 68 9c 3c b5 db ad 3d 1b 8d 99 3d
       0.06456735 0.019092627 0.084891714 0.07497617
000100 58 dc 75 be a7 e8 08 3e 17 9b 92 be 63 b8 93 bd
       -0.24009836 0.1337 -0.2863395 -0.07212903
000110 80 5d a1 3d 66 11 56 3c f0 c4 fe bd 7d 5a e7 be
       0.07879162 0.013065672 -0.124399066 -0.45186225
000120 fe 4f 35 3c 6c 8a 13 3d ae aa c9 3d 34 3c fc 3d
       0.011066435 0.03602068 0.09847008 0.1231617
000130 28 7c 22 be 58 10 44 bd 56 96 dd 3d 09 10 ad 3d
       -0.15867674 -0.04786715 0.1081969 0.08450324
000140 e4 eb 1c 3e 94 b2 98 3d b4 aa d9 bd ce 78 68 be
       0.1532436 0.07455936 -0.10628262 -0.22702333
000150 eb 76 40 3e 05 28 53 3e 3e d2 eb bd f7 74 9d 3d
       0.18795364 0.20620735 -0.1151471 0.07688325
000160 7c 04 0f 3d 0f b5 16 be ed be a4 3d db c7 42 be
       0.034916386 -0.14717506 0.08044229 -0.19021551
000170 6d e0 ab 3e 7f f6 9f bd e4 3b f5 bb 05 cd 0c 3e
       0.3356966 -0.07810687 -0.007483946 0.13750084
000180 f2 e1 83 be e0 9f 96 3d 2b ab 0e be 9e d2 5e bd
       -0.2575832 0.073547125 -0.13932483 -0.05440008
000190 b6 d6 32 be 88 b7 62 be 8f cd ab 3c c7 9d 53 3d
       -0.17464718 -0.22140324 0.020972041 0.05166414
0001a0 0d 38 c1 3d de f7 17 3e 6d bf 14 be fb 79 b0 3c
       0.09434519 0.14840648 -0.14526148 0.02154254
0001b0 c5 24 94 3e 0a fb f8 3c e2 e1 b6 bd ad 6d 09 be
       0.28934303 0.030393142 -0.089298025 -0.13420744
0001c0 01 6f 42 be e3 ae 27 be 0c 8b 71 3d cf 17 83 bc
       -0.18987657 -0.16375308 0.058970496 -0.016002564
0001d0 54 b1 81 bc 24 ae 55 be 49 5b a1 bd 9e 1b a3 bc
       -0.015831627 -0.2086721 -0.078787394 -0.01991063
0001e0 4b 51 18 bd b1 78 eb bc dc 89 ae bc 60 f6 00 bd
       -0.037186902 -0.028744074 -0.02130597 -0.03148496
0001f0 5d 17 75 be f1 c3 54 be fd 86 ce 3d 0d c0 48 be
       -0.23934694 -0.2077787 0.10084341 -0.19604512

coefficient1 f4 [128, 64]
000000 57 77 1b bf 3d 66 94 be ca a2 db 3b 78 b0 17 bf
       -0.60728973 -0.28984252 0.0067027556 -0.59253645
000010 be 17 71 be f3 3f 4d 3c e4 09 ae 3d 8c 0b 9a 3d
       -0.23544213 0.012527454 0.0849798 0.07521734
000020 f2 d0 18 3f 97 cc 55 bc 70 20 26 be 7a 69 d1 3d
       0.59693825 -0.013049266 -0.16223311 0.10225196
000030 35 21 b6 3d 55 4f 96 bd e6 f0 f4 3e 1b f2 cb be
       0.088930525 -0.0733935 0.4784004 -0.3983315
000040 01 1d 51 3d 2b 14 15 bf bd 3b 26 be ea be da 3d
       0.05105305 -0.582339 -0.16233726 0.10680945
000050 7b 08 e7 bb c8 84 0e 3f 1c e0 14 80 93 ca 30 3f
       -0.0070505715 0.5567136 -1.917105e-39 0.69059104
000060 59 39 0d 80 d3 46 0c be 4f b1 b4 3e 42 5d 5d 3e
       -1.214434e-39 -0.13698892 0.35291526 0.21617606
000070 0b 24 15 3f 47 31 14 80 de 02 94 3e bc 97 ab be
       0.5825812 -1.854387e-39 0.28908437 -0.33514202
000080 df 99 fe 3d fc 96 80 bd db 6f 4a be 1a e5 df 3e
       0.12431692 -0.06278798 -0.19769232 0.43729478
000090 1f b3 b5 3e cf 52 05 80 0d 67 ba be 85 15 37 3e
       0.3548822 -4.88884e-40 -0.36406747 0.17879303
0000a0 c7 dd 11 80 bd 49 03 3f 69 06 aa 3d f4 c3 8d 3d
       -1.640762e-39 0.5128439 0.08302004 0.06922141
0000b0 52 f9 08 3f ac 41 88 3e 3b 7a b6 be 98 a4 5f 3e
       0.5350543 0.26612604 -0.3564013 0.21840131
0000c0 db 1e 06 80 bd e0 3a be a8 4e 9c be bc 1b 20 be
       -5.62082e-40 -0.18249793 -0.3052876 -0.1563558
0000d0 e5 f4 24 bd 5f fa 17 3d 9d 25 42 3d ed 3d d2 be
       -0.040272612 0.037104007 0.047399152 -0.4106287
0000e0 e9 b7 9a be 3e 1a af be af 26 5e bc ac d2 83 3e
       -0.30218437 -0.3419971 -0.013559028 0.25746667
0000f0 43 f4 9a 3e 5e 58 36 3e 17 b8 0d 80 54 c5 08 80
       0.30264482 0.17807147 -1.2599e-39 -8.05472e-40
000100 81 62 56 3d d2 50 5c 3d 09 d6 b3 3d 55 7e d0 be
       0.052340034 0.053788014 0.08781058 -0.40721384
000110 db b3 d5 bd 46 27 2b 3e be 5b 74 be 9c 6b 14 bf
       -0.10434695 0.167142 -0.23863122 -0.579767
000120 1d c1 86 be 40 58 69 be 02 40 ec bd 8b 7a 7b be
       -0.2631921 -0.22787571 -0.11535646 -0.24558465
000130 e2 7e a6 3e 23 7c 24 bf 60 d7 62 bd b0 04 b0 be
       0.3251868 -0.6425192 -0.05538118 -0.34378576
000140 5f 2d c1 bd 86 46 3c bf 9c be c8 bd 39 8b 87 be
       -0.09432482 -0.7354511 -0.09801981 -0.26473406
000150 42 ab a5 3d f4 f0 84 be 1f 29 03 00 0b de 3c 3e
       0.080893055 -0.25965083 2.90258e-40 0.18444078
000160 aa 79 04 00 60 60 9d 3e 5e 10 f4 be cd 7b dc 3d
       4.10987e-40 0.3073759 -0.47668737 0.107658006
000170 69 0e 94 be 38 07 10 00 29 71 27 3e 2a e0 41 3f
       -0.28917244 1.471958e-39 0.16351761 0.7573267
000180 2c 8a 8d be 9b 35 26 3e ba cf 97 bd 27 30 b1 3e
       -0.2764448 0.16231386 -0.074126676 0.3460705
000190 d8 77 03 bf 6b 62 11 80 d2 e7 6f bf 15 3a ff 3d
       -0.5135474 -1.596509e-39 -0.93713105 0.1246225
0001a0 3f ca 13 80 8a 1c d8 3e f9 9a ac 3c 8e 89 37 3e
       -1.817427e-39 0.42209274 0.02106999 0.17923567
0001b0 37 a2 07 be 7c 6f 3e 3e 78 8c 03 be 12 49 29 bd
       -0.13245474 0.18597215 -0.12846553 -0.04132945
0001c0 9f 4f 15 80 45 0b 43 3e 17 e4 2e be c9 9b 95 3e
       -1.957108e-39 0.19047268 -0.17079197 0.29220417
0001d0 41 57 78 bf 85 98 e8 bd 6a f9 45 be 0c 7c 3c bd
       -0.9700814 -0.11357216 -0.19333425 -0.046016738
0001e0 d1 93 39 3f 4d 50 b1 be 80 f9 30 bc 2a db 08 bd
       0.72491175 -0.34631577 -0.010801673 -0.033412136
0001f0 cd 80 e0 3e 42 ba b8 be 6e 4a 08 80 57 ea 13 80
       0.43848267 -0.36079603 -7.61384e-40 -1.82894e-39
000200 b6 ab b4 be 1d c7 e3 be 26 25 bb be 81 1d 56 3e
       -0.35287255 -0.4448785 -0.3655178 0.20909692
000210 7f ab b4 be e6 fe 75 3d 3c 5c 67 3d 8b da 15 3e
       -0.3528709 0.060057543 0.056484446 0.14634149
000220 a3 5e 81 3e 95 49 0c 3d 51 74 45 3e 98 0c 4a be
       0.25267515 0.03424986 0.19282652 -0.19731367
000230 3b 88 3a 3f 18 23 4a be c3 2f 19 3e b8 38 9c be
       0.7286412 -0.1973995 0.14959626 -0.30512023
000240 a8 95 07 3f b2 13 c4 be 71 b5 f4 bd f5 e0 a9 be
       0.5296273 -0.38296276 -0.1194867 -0.3317944
000250 8f 47 94 3e cd cd 5c bd 05 1b 0b 80 a3 96 80 bd
       0.28960845 -0.053907204 -1.019883e-39 -0.06278732
000260 3b 70 11 00 3d d6 b5 3c 50 d4 1f be 4d 00 05 bd
       1.601464e-39 0.022196883 -0.15608335 -0.03247099
000270 4d bd 07 bf f3 32 05 80 cb 2d 85 3e fc 10 a6 3e
       -0.53023225 -4.77455e-40 0.260115 0.32434833
000280 bd 5b 34 be c3 39 5b be 8d ca 8c 3e 38 3f 43 3e
       -0.1761312 -0.21408753 0.27498284 0.19067085
000290 e9 d8 08 3f a8 e9 0e 80 c8 f6 f4 be 2e 24 89 be
       0.5345598 -1.369517e-39 -0.4784453 -0.26785415
0002a0 64 1b 11 80 d0 90 03 be 17 4e ce bd 81 58 2c bf
       -1.57103e-39 -0.1284821 -0.10073488 -0.67322546
0002b0 1b 79 3a bd c5 d2 ee bd a5 8c 14 3d 09 2b 0e 3e
       -0.04552565 -0.11661295 0.03626694 0.13883604
0002c0 76 95 00 80 ab 83 08 3e 58 0b db be a9 44 36 be
       -5.3616e-41 0.13331477 -0.42782092 -0.1779963
0002d0 34 25 ae bd 9e 5b 54 be 89 e0 03 3f c3 b2 f3 bd
       -0.0850319 -0.20738074 0.5151449 -0.118993305
0002e0 ef ed fc be 48 e7 d0 bc 19 9d aa be a3 8a 1c be
       -0.4940028 -0.025500908 -0.3332298 -0.1528726
0002f0 7e 83 d7 3e 11 07 24 3f c7 40 0d 80 63 3b 11 00
       0.42092508 0.6407328 -1.217099e-39 1.582507e-39
000300 9d ca 0e 3f 28 20 5e 3e e0 57 80 3d 4a 11 a8 3d
       0.55777913 0.21691954 0.06266761 0.082064226
000310 12 30 f9 be 99 60 c0 3e 0f 00 3b 3f 53 bf 95 be
       -0.48669487 0.37573698 0.73046964 -0.2924753
000320 d2 30 ce 3b e2 af 66 3e b8 c3 b1 3b 83 50 16 3e
       0.006292441 0.22528031 0.005424943 0.1467915
000330 ea db 02 3e ee 93 11 3e c7 ce 83 3e 0c 96 d3 3e
       0.12779203 0.14216587 0.25743696 0.41325414
000340 bb db 7f bf 77 c6 33 3f d5 94 7e 3e 87 11 cf 3e
       -0.9994466 0.7022471 0.24861462 0.4044306
000350 3a 0a 33 3f 1d 2a 02 3e af 4a 17 80 3f 2c 19 3e
       0.6993748 0.12711377 -2.139008e-39 0.14958285
000360 54 1c 01 80 f4 c4 5e 3d 15 df 23 be 06 fa 9d 3e
       -1.01998e-40 0.054387048 -0.16003068 0.30854815
000370 27 71 01 3e ee 56 17 80 ad 38 46 3f 06 03 8c 3e
       0.1264082 -2.143401e-39 0.7743023 0.27346057
000380 3c cd a6 3e 7c f5 ce 3e 64 76 60 3e b5 51 07 3b
       0.32578456 0.40421665 0.21920162 0.0020648066
000390 4a d3 82 3d 1d 9c 03 00 b5 b3 83 3e 10 d6 ab be
       0.063879564 3.3151e-40 0.25723043 -0.33561754
0003a0 5e 84 0f 00 4b 4c 31 3e 9d ed 8e 3e 65 79 bc 3d
       1.425017e-39 0.1731426 0.2791566 0.09202842
0003b0 d5 a5 2a bd 9e 41 f4 bc e8 0a 82 be 23 e0 1a 3f
       -0.041662056 -0.029816445 -0.25398946 0.60498255
0003c0 94 2b 01 80 ab 53 b3 be cd 8d 4e be 10 d3 d4 be
       -1.07468e-40 -0.3502477 -0.2017128 -0.41567278
0003d0 23 74 06 be 75 ea 25 3d 7b 64 24 3e a6 e5 4c bf
       -0.1313024 0.0405068 0.16053955 -0.80037916
0003e0 d4 b8 3c 3e b6 d2 2a 3f b9 a9 59 3e 2c f1 89 3e
       0.18429881 0.6672777 0.2125615 0.26941812
0003f0 5d a9 94 3d 6d fe 31 3f b3 50 15 00 51 27 05 00
       0.07258866 0.6952885 1.957495e-39 4.73282e-40

intercepts1 f4 [1, 64]
000000 07 26 9b 3c a2 0e 62 3e 0e e0 73 3e 3e da 39 be
       0.018939031 0.22075894 0.23815939 -0.18149659
000010 3a b5 0c 3e 74 17 34 3d 7c cd 6d 3a 72 80 86 3e
       0.13741007 0.04396768 0.0009071452 0.2626987
000020 45 e4 82 3e 70 26 d5 3e a4 43 aa 3e 56 a6 04 3e
       0.2556478 0.41630888 0.3325473 0.12954077
000030 63 c5 3c bd 38 71 81 3e dd d9 0a 3c a5 e3 88 be
       -0.04608668 0.25281692 0.008474794 -0.2673618
000040 e7 62 7f 3e 40 29 bc 3d 43 91 98 3e 1f 3f 0e 3e
       0.24940072 0.09187555 0.29798326 0.13891266
000050 75 85 b8 3d 0b 1d c8 3d 48 59 9a bd 6d e6 85 be
       0.0900983 0.097711645 -0.0753656 -0.26152363
000060 4e 16 eb bd a1 fe 0d 3c bb ec 57 3e a5 2d ae 3d
       -0.11478864 0.008666665 0.210864 0.085048
000070 d0 2d a9 bc 5b 9b 29 be c4 e0 4b 3e 47 cf 94 3e
       -0.020651728 -0.1656317 0.1990996 0.2906439
000080 3d 02 cd 3d c6 e0 16 be 5a dd a5 3c da 30 21 3e
       0.100101925 -0.14734182 0.02024715 0.15741292
000090 68 8a 46 3d a3 44 07 be 0b 05 c7 3e 72 d1 3a 3e
       0.04847184 -0.13209777 0.38871035 0.1824396
0000a0 26 ef 2c be 67 b3 b7 bd c9 b2 a7 3e 6c 9f 87 be
       -0.16888103 -0.08969765 0.3275359 -0.26488817
0000b0 f2 d7 4b 3e 87 8c 85 3e 22 92 bd 3e 7f b0 67 3e
       0.19906595 0.26083776 0.37025553 0.22625922
0000c0 95 14 06 be 2b 0d 1d 3e d2 50 f0 3d e2 11 76 3d
       -0.13093789 0.15337054 0.11734165 0.060075648
0000d0 a5 13 a1 3e 6e 9b 02 3e 1c 11 23 3d 5e 0d 21 3e
       0.314603 0.12754604 0.03981124 0.15727755
0000e0 ae f8 ce 3c d8 71 30 3e eb ab 02 3e 9b 7f f8 bd
       0.025265064 0.17230928 0.12760894 -0.12133714
0000f0 73 39 b8 3d 95 ef 53 3d f7 28 23 be cc 47 e5 bd
       0.089953326 0.051742155 -0.15933596 -0.11195335

coefficient2 f4 [64, 7]
000000 39 a7 97 3e e5 02 77 3e 89 92 61 3e 12 3d 51 bf
       0.29619768 0.24122198 0.22028555 -0.8173381
000010 75 e4 e8 bd ae 59 fe bd c0 93 d8 3d a9 5f eb 3e
       -0.113717 -0.12419449 0.10575056 0.4597142
000020 0d 9f e5 3d fc a7 17 bf a2 69 a3 be 6c b2 28 be
       0.11211977 -0.592407 -0.3191653 -0.16474313
000030 a2 87 57 be b9 c6 62 3d 6f a7 97 be 91 34 90 3d
       -0.21047834 0.055365298 -0.2961993 0.07041276
000040 03 25 ae 3e 4d 2a a8 3e 24 41 01 bf 51 b4 8a bd
       0.34012613 0.32844773 -0.5049002 -0.06772674
000050 c6 75 2b 3e 82 62 71 3e 97 d1 c7 3d 18 bf 2c bd
       0.16744146 0.23572734 0.09756773 -0.04217443
000060 8c 98 38 3e f6 fa 8e 3e 41 fa 15 bf 1a 96 95 3e
       0.18026942 0.27925843 -0.5858498 0.2921608
000070 5e 24 6a 3e 0e d7 c9 be fb ed 7e bd f2 f9 16 3e
       0.22865435 -0.39421886 -0.062238675 0.14743784
000080 c3 6a e1 bd 7e 32 5b be eb 42 b9 3e 0e 9d 3b 3d
       -0.11006691 -0.2140598 0.36183867 0.045804076
000090 b9 8e b7 3d f5 3e 91 bf 6f 97 cb bc 71 8d 87 3e
       0.08962769 -1.1347338 -0.024852483 0.264751
0000a0 7a 45 1e be 42 25 bc bd 0f a9 fb be 25 53 d0 3d
       -0.1545619 -0.09186794 -0.4915242 0.101721086
0000b0 3b f7 66 3f ea da 0f be 36 6a e2 be 4a 2d 1f ba
       0.90220994 -0.14048353 -0.44221658 -0.0006072117
0000c0 e6 eb 41 bf a7 9c 83 3d 39 5e b8 3e 91 60 83 bf
       -0.7575058 0.064263634 0.36009386 -1.0263845
0000d0 43 82 bc be 79 07 29 3c 98 d5 3c bf a3 99 f3 3d
       -0.36818132 0.010316723 -0.7376342 0.11894538
0000e0 99 a2 d8 bd 00 37 2f bf 41 ba f0 be 44 78 ad 3e
       -0.10577888 -0.684433 -0.470171 0.33880818
0000f0 f9 1c 10 3e 9c 9a 89 3d 20 32 89 be 93 f8 73 3e
       0.14073552 0.067189425 -0.26796055 0.23825292
000100 f2 a3 17 bf 42 4c 8d 3d 82 34 b9 be 03 9f 9f 3e
       -0.59234536 0.06899311 -0.36172873 0.31176004
000110 fd 40 92 3e d8 01 df 3d 72 ff f9 be 28 89 51 3e
       0.28565207 0.108890235 -0.48827702 0.20462477
000120 4a f6 90 3e b0 21 cf 3c a5 12 96 3e 9e 69 d6 3e
       0.28312904 0.025284618 0.293111 0.41877455
000130 ce 64 03 bf 74 8d 8b 3e 6b cc 5b ba 3d 7d 27 bf
       -0.5132569 0.27256358 -0.00083846477 -0.65425473
000140 6f 1c 81 3d 59 1e 32 be 30 9a 95 3e f4 65 35 3e
       0.063042514 -0.17394389 0.29219198 0.17714673
000150 c4 02 1b 3e a3 1a 8e 3e 49 a6 01 3e f2 f1 bb be
       0.15137774 0.27754697 0.12661089 -0.36708027
000160 79 93 c8 be 1b f2 1c 3e ea 2a 48 3e a2 af a9 3e
       -0.39175013 0.15326731 0.1954762 0.3314181
000170 c0 6a 84 bf 95 1b e3 bc 67 28 86 3e 65 5b d7 3c
       -1.0345078 -0.027723113 0.262027 0.026288697
000180 19 4f 7f 3e db 6c 34 be 4e 7a a5 be 04 fa 12 bf
       0.24932517 -0.1761965 -0.32319874 -0.57412744
000190 9d de 3f bd 16 ee ea 3d 13 3c a6 3e 44 f8 0a be
       -0.04684316 0.114711925 0.32467708 -0.13571268
0001a0 c4 e0 05 be 9c da a0 3e b7 00 b7 3d ba 02 5b bf
       -0.13074023 0.31416786 0.08935683 -0.85551035
0001b0 cd 21 48 be 1d ac a2 3e d1 4a 4b be d3 48 87 3e
       -0.19544144 0.31771937 -0.19852759 0.26422748
0001c0 1f 62 2d 3d 63 13 2d 3e f9 05 83 be 2d 65 e8 3e
       0.042329904 0.16901927 -0.25590494 0.4538969
0001d0 fe 04 10 3e 20 91 65 be d1 08 bc 3e 4e d6 a7 3e
       0.14064404 -0.22418642 0.36725476 0.3278069
0001e0 18 73 26 bf 6c 35 08 bf 0d d1 9b 3a 01 c3 ad be
       -0.6501937 -0.53206515 0.0011887864 -0.3393784
0001f0 3d 84 8d 3e df d2 e9 3d fb ba a2 bd 54 0d 4b bf
       0.27639952 0.114171736 -0.0794582 -0.7931721
000200 44 c8 f5 3e c1 cb c0 3e 51 f1 91 bc 6a c8 43 3e
       0.48004353 0.37655452 -0.017815264 0.1911942
000210 7a 80 91 bc d2 9c 8d 3d 38 e1 4b bf 3f 2b 7f 3e
       -0.017761458 0.06914677 -0.7964053 0.24918841
000220 fb ca 34 3e 10 00 35 3e fc 26 a6 3d ff b6 74 3e
       0.17655556 0.17675805 0.081129044 0.23897932
000230 6a af de 3d a3 4b 62 3c cd a1 bf 3e 9c da 1c bf
       0.10873301 0.0138119785 0.37428132 -0.6127107
000240 b7 7b 4e be 02 33 ca 3e 2d 88 43 be 66 ff 56 bf
       -0.20164381 0.3949204 -0.19094916 -0.8398346
000250 da ce e2 3e 3f 60 1f 3f 3d 43 91 3e e0 fb 77 3e
       0.4429844 0.62256235 0.2837161 0.24217176
000260 2d 8c 05 bf ce 4d 82 be d1 15 03 00 14 7d 09 80
       -0.52167016 -0.25449985 2.83333e-40 -8.71389e-40
000270 fd 46 15 80 eb 36 05 80 82 7f 0c 80 28 a0 03 80
       -1.954011e-39 -4.78878e-40 -1.147767e-39 -3.3296e-40
000280 47 20 0b 80 d7 e1 90 3e 01 1d d5 3d 9c 8d ed be
       -1.02177e-39 0.28297302 0.10405923 -0.46397102
000290 2b 12 f3 3c 39 73 ad be 47 8e 90 3e 9b 3f 09 bf
       0.02967175 -0.3387697 0.2823355 -0.5361268
0002a0 65 88 07 00 0c 40 04 80 c9 d6 12 00 65 96 11 80
       6.91778e-40 -3.90318e-40 1.73009e-39 -1.615155e-39
0002b0 e1 3c 06 80 47 25 00 80 05 df 05 00 05 cf 19 bf
       -5.72852e-40 -1.3373e-41 5.39182e-40 -0.6008151
0002c0 49 c7 7d 3d 7e 41 b3 3e bf f8 dd 3c 3f 26 1c be
       0.06195763 0.35010904 0.02709615 -0.15248965
0002d0 75 be 82 3e 86 2c a9 be 80 74 af 3e 19 4c a5 3e
       0.25535932 -0.3304178 0.3426857 0.3228462
0002e0 e6 97 71 3e 47 b0 b5 3d 32 33 c5 be 68 2c 07 be
       0.23593101 0.08871513 -0.3851562 -0.13200533
0002f0 3d 23 98 be 45 d9 4f 3e 21 22 83 3d 22 7f a9 bc
       -0.29714385 0.20297725 0.06402994 -0.020690504
000300 88 0b 0a bf df a9 a4 3e f9 da 20 be ee 02 83 be
       -0.53923845 0.3216085 -0.15708531 -0.25588173
000310 43 9e 71 be 76 05 e8 be d7 86 f0 be 5f 1f 34 3e
       -0.23595528 -0.45316666 -0.46977875 0.17590092
000320 ee 81 01 3e e2 0c 19 3d 50 95 4f 3e 2c e9 16 00
       0.1264722 0.0373658 0.20271802 2.104027e-39
000330 48 f7 14 80 d8 22 15 80 32 04 0b 00 eb c4 0f 00
       -1.925418e-39 -1.941045e-39 1.011695e-39 1.448173e-39
000340 ab 81 08 00 1f fe 0f 80 42 6a 5e 3e 74 27 aa 3e
       7.812e-40 -1.468694e-39 0.21720222 0.33233225
000350 d8 ca 0f bf 3b 97 b7 3d f2 54 ef 3d bf 02 1a bf
       -0.5616889 0.08964392 0.11686124 -0.6016044
000360 eb 4c 12 3d e5 66 1e bf c6 f5 10 be ac c4 71 3e
       0.035717886 -0.61875755 -0.14156255 0.2361018
000370 f1 b0 25 bd 89 7e 7e 3c 80 eb 61 3e 2f 14 73 3e
       -0.040451948 0.015533098 0.22062492 0.23738168
000380 45 1b c7 bd 85 4e bb 3e b6 66 06 bf 28 3e 94 3d
       -0.09721998 0.36583343 -0.52500474 0.07238418
000390 ec 36 62 3e 12 2e 61 be c0 f3 4c 3e 76 71 c4 3c
       0.22091264 -0.2199023 0.20014858 0.023979884
0003a0 cf ef 84 3e 07 b8 29 3e 4e bd 1d 3e 82 8a 07 bd
       0.2596421 0.16574107 0.15404245 -0.033091076
0003b0 62 3b d5 be 9b 2c d4 be ff 22 a0 be 62 e8 a0 3e
       -0.41646868 -0.4144028 -0.312767 0.31427294
0003c0 a1 38 bf be 09 06 0e 3f c7 35 98 3e d6 cb 1f 3e
       -0.37347892 0.5547796 0.2972853 0.15605101
0003d0 2d 62 85 3e 18 3d a6 bc 99 d2 9b 3e 1c 8a fe 3d
       0.26051465 -0.020292804 0.3043411 0.12428686
0003e0 50 b8 18 bf cf 98 73 3e 0a 7d bc be 09 28 b2 bd
       -0.5965624 0.2378876 -0.36814147 -0.08699042
0003f0 8a 40 c0 be 5d 1c f6 3c cf eb b0 bd 71 d8 20 3e
       -0.3754924 0.030042822 -0.08638727 0.15707566

intercepts2 f4 [1, 7]
000000 43 69 e6 be 2b 33 a0 be 3a d8 59 3e 08 dc 35 be
       -0.45002183 -0.31289038 0.2127389 -0.17759717
000010 eb 38 ca 3e 7b 43 1e 3e c7 a1 d5 bd
       0.3949655 0.1545543 -0.10431247
